Model: "sequential_1"
____________________________________________________________________________________________________
 Layer (type)                                Output Shape                            Param #        
====================================================================================================
 conv2d (Conv2D)                             (None, 248, 248, 32)                    896            
                                                                                                    
 batch_normalization (BatchNormalization)    (None, 248, 248, 32)                    128            
                                                                                                    
 max_pooling2d (MaxPooling2D)                (None, 124, 124, 32)                    0              
                                                                                                    
 conv2d_1 (Conv2D)                           (None, 122, 122, 64)                    18496          
                                                                                                    
 batch_normalization_1 (BatchNormalization)  (None, 122, 122, 64)                    256            
                                                                                                    
 max_pooling2d_1 (MaxPooling2D)              (None, 61, 61, 64)                      0              
                                                                                                    
 flatten (Flatten)                           (None, 238144)                          0              
                                                                                                    
 dense (Dense)                               (None, 128)                             30482560       
                                                                                                    
 batch_normalization_2 (BatchNormalization)  (None, 128)                             512            
                                                                                                    
 dropout (Dropout)                           (None, 128)                             0              
                                                                                                    
 dense_1 (Dense)                             (None, 5)                               645            
                                                                                                    
====================================================================================================
Total params: 30,503,493
Trainable params: 30,503,045
Non-trainable params: 448
____________________________________________________________________________________________________
…
